GNNs/GLAN.pth (torch, 161551 bytes, 125 tensors)

encoder_node.0.weight f4 [8, 3]
0	0x3f3c707f	0.73609155
1	0xbe9f0ae0	-0.31062984
2	0xbeb4d748	-0.35320497
3	0xbebd0e8b	-0.36925158
4	0xbed6c484	-0.41946805
5	0x3f1119d9	0.56680065
6	0xbe8c32ee	-0.27382606
7	0x3e003280	0.12519264
8	0xbe9bfa5a	-0.3046444
9	0x3e1f2060	0.15539694
10	0xbef80f26	-0.48449057
11	0x3f061309	0.52372795
12	0xbe893a80	-0.26802444
13	0xbc89fa00	-0.016842842
14	0x3e3948a4	0.18094116
15	0x3ee8c552	0.45463043
16	0xbf0850df	-0.532484
17	0xbe9955fb	-0.2994841
18	0x3dde1f60	0.10845828
19	0x3ed2078a	0.41021377
20	0xbed4dbdc	-0.4157399
21	0xbc9a9900	-0.018871784
22	0xbf157718	-0.5838485
23	0xbf3618ec	-0.7113178

encoder_node.0.bias f4 [8]
0	0xbe4f281c	-0.20230144
1	0x3ed644c6	0.41849345
2	0x3f024286	0.50882757
3	0x3e8f7642	0.2801991
4	0xbeb25068	-0.3482697
5	0x3eeffcc0	0.4687252
6	0x3eacd7ae	0.337583
7	0xbec56f96	-0.38561696

encoder_node.3.weight f4 [8, 8]
0	0xbd9d6db8	-0.07686943
1	0x3ed7ef36	0.4217469
2	0x3f12bf25	0.57322913
3	0xbec4f456	-0.38467664
4	0xbe3fd10e	-0.18732092
5	0xbf0f728f	-0.5603418
6	0x3f18f1bf	0.59743875
7	0x3ea11292	0.3145948
8	0xbe95c9ff	-0.29255673
9	0xbea1937e	-0.3155784
10	0x3c81a840	0.015827298
11	0xbed90649	-0.42387608
12	0x3e7e8348	0.24854767
13	0xbeb04a88	-0.34431863
14	0xbe263dea	-0.16234556
15	0x3eaef342	0.34169966
16	0xbda87b28	-0.08226615
17	0x3ef8deee	0.48607582
18	0xbeb524b3	-0.35379562
19	0xbf133b86	-0.575127
20	0xbeece93c	-0.46271694
21	0x3eaf1842	0.34198195
22	0x3e43708c	0.19085902
23	0x3e6bcb3c	0.23026747
24	0x3e88b550	0.2670083
25	0xbedd7ce8	-0.43259358
26	0xbe83e359	-0.2575939
27	0x3d186e90	0.037214816
28	0xbf15903d	-0.58423215
29	0xbe101004	-0.1406861
30	0xbeec58e6	-0.46161574
31	0x3dbbcd38	0.09170002
32	0xbeadc6f4	-0.33940852
33	0xbec81cbf	-0.39084432
34	0x3e6b4174	0.22974187
35	0xbe116982	-0.14200404
36	0xbe7d8504	-0.24757773
37	0xbde51f98	-0.11187667
38	0x3f058833	0.5216095
39	0xbe2fa2d6	-0.1715196
40	0x3ef0564a	0.46940833
41	0x3ec6c92e	0.38825363
42	0xbee44767	-0.44585726
43	0xbecc3f8e	-0.39892238
44	0xbf1aa84a	-0.6041304
45	0xbea3cf8e	-0.3199429
46	0xbec9c00c	-0.39404333
47	0x3ea091c0	0.31361198
48	0xbee692ed	-0.4503397
49	0x3eb8910a	0.36048156
50	0xbe43c3b8	-0.1911763
51	0xbeddcdcc	-0.43321073
52	0xbdcc45d8	-0.09974259
53	0x3ee695d2	0.4503618
54	0x3ce1a2c0	0.027543426
55	0x3e3a52f8	0.18195713
56	0xbb23c100	-0.0024986863
57	0xbd2d7f50	-0.042357743
58	0xbe0e7e96	-0.13915476
59	0x3cae6e40	0.021292806
60	0xbde9ba60	-0.11412501
61	0xbdacffd0	-0.0844723
62	0xbe245e94	-0.16051704
63	0xbd68b4b0	-0.056812942

encoder_node.3.bias f4 [8]
0	0xbe4ae2ba	-0.19813052
1	0xbde5f506	-0.11228375
2	0x3dcd9578	0.100382745
3	0x3d889608	0.06669241
4	0xbd548950	-0.051888764
5	0x3e80f9f3	0.25190696
6	0x3e01e624	0.12685448
7	0x3b427e00	0.0029677153

encoder_edge.0.weight f4 [8, 1]
0	0xbe8b9f32	-0.27269894
1	0xbe902e66	-0.281604
2	0x3d2e1930	0.04250449
3	0x3eca7572	0.3954273
4	0xbe14eb68	-0.14542925
5	0x3c20fcdc	0.009825911
6	0x3cdfbe90	0.027312547
7	0xbbf41400	-0.0074486732

encoder_edge.0.bias f4 [8]
0	0xbe780960	-0.24222326
1	0x3f2189b1	0.63100725
2	0xbe9b50d4	-0.30335104
3	0x3ec15441	0.37759593
4	0xbf58feb0	-0.8476362
5	0xbc372fa6	-0.011180794
6	0xbd1b590c	-0.03792672
7	0xbf6c0608	-0.921967

encoder_edge.3.weight f4 [16, 8]
0	0xbd1f5050	-0.03889495
1	0x3e889ab5	0.26680532
2	0xbebefee8	-0.37303853
3	0x3d9d3f93	0.076781414
4	0xbcb59480	-0.022165537
5	0x3ee445b4	0.4458443
6	0x3d9518e1	0.07280136
7	0xbe079b28	-0.13242781
8	0x3dc5c7b0	0.09657228
9	0xbee4eb3f	-0.4471073
10	0xbee402e6	-0.4453346
11	0xbe13bf07	-0.1442834
12	0x3e0b310c	0.13592929
13	0x3dd0d0b0	0.10196054
14	0xbea3d4ba	-0.31998235
15	0xbe52650c	-0.20546359
16	0x3dba13a8	0.090857804
17	0x3e7992e0	0.24372435
18	0xbeb0b7a2	-0.345151
19	0xbea4973a	-0.32146627
20	0x3ecc9b9a	0.39962465
21	0x3deb7888	0.11497599
22	0x3ea5185e	0.32245153
23	0xbee4e09e	-0.4470262
24	0xbeb6419a	-0.35596925
25	0xbecc33c0	-0.39883232
26	0xbeebf0f8	-0.46082282
27	0x3e629a3d	0.2212915
28	0xbded3378	-0.115820825
29	0x3ef28872	0.47369725
30	0x3ea8df63	0.3298293
31	0xbe577f90	-0.21044755
32	0x3ebc4dc4	0.3677808
33	0xbe760bfe	-0.24028012
34	0x3e840a42	0.25789076
35	0x3e041fe9	0.12902798
36	0xbeb7ed28	-0.35923123
37	0xbf05c011	-0.52246195
38	0xbed44ab6	-0.4146325
39	0xbe8a2b2a	-0.26986057
40	0x3cfcfb60	0.030881584
41	0xbf0d8325	-0.55278236
42	0x3e1355dc	0.14388222
43	0xbd8ee53b	-0.06977316
44	0xbedc5d54	-0.43039954
45	0x3e1b30e0	0.15155363
46	0x3e73e8b7	0.23819242
47	0x3ed0349a	0.40665132
48	0x3dc98ba0	0.098410845
49	0x3e07c8df	0.1326022
50	0x3ecf9830	0.40545797
51	0x3e082991	0.13297106
52	0x3ed40fcc	0.41418302
53	0xbeec9ff9	-0.462158
54	0xbe3794ba	-0.17927828
55	0x3e024cec	0.12724656
56	0x3ec2a09e	0.38013166
57	0x3e0c4052	0.13696411
58	0xbeacea64	-0.33772576
59	0x3ee34e57	0.44395706
60	0x3e3329e4	0.17496449
61	0xbdb8b4dc	-0.09018871
62	0xbe6cad4c	-0.23112983
63	0xbe2e77c4	-0.17037874
64	0x3e56357c	0.2091884
65	0xbde3bfd2	-0.11120571
66	0x3ea78b34	0.3272339
67	0xbed210a6	-0.41028327
68	0xbc159700	-0.0091302395
69	0xbe043ca8	-0.12913764
70	0xbea3781c	-0.31927574
71	0x3e8c4f08	0.27404046
72	0xbecbdf3c	-0.39818752
73	0x3d398441	0.045292143
74	0xbe344de0	-0.17607832
75	0xbe8d81c3	-0.27638063
76	0xbd78a5f0	-0.060705125
77	0xbc842524	-0.016130991
78	0x3d0ffcab	0.035153072
79	0xbef20d04	-0.47275555
80	0xbeb48712	-0.352593
81	0xbd12361b	-0.03569613
82	0x3db58cf8	0.08864778
83	0xbd11e165	-0.035615344
84	0xbe69331c	-0.22773403
85	0x3e97e18f	0.29664275
86	0x3f087d69	0.5331636
87	0xbe1f46c8	-0.15554345
88	0xbe8b1e8e	-0.2717175
89	0xbddbd391	-0.107337125
90	0xbe87c40e	-0.26516765
91	0x3d5a5774	0.053306058
92	0x3eef4660	0.4673338
93	0xbddfe652	-0.10932602
94	0xbdce8f75	-0.10085956
95	0xbe53be08	-0.2067796
96	0xbec21dce	-0.37913364
97	0x3e797ba3	0.2436357
98	0x3efb2eba	0.49059087
99	0xbf17b697	-0.59262985
100	0xbe4e42d8	-0.20142686
101	0xbf041673	-0.51596755
102	0xbefd958d	-0.4952816
103	0x3d731250	0.059343636
104	0xbe23e940	-0.16006947
105	0x3c4b874f	0.012422397
106	0xbea74c24	-0.32675278
107	0x3e72e658	0.23720682
108	0x3e8759dc	0.26435745
109	0xbd0331d6	-0.03202995
110	0x3ebce82f	0.36895892
111	0x3e13fcc0	0.14451885
112	0x3e603154	0.21893817
113	0x3e9866f8	0.2976606
114	0x3e7cb588	0.24678624
115	0xbe547cfd	-0.20750804
116	0x3e8fa7d2	0.28057724
117	0xbbb1c112	-0.005424627
118	0x3e295a49	0.16538347
119	0xbee606f8	-0.44927192
120	0xbe3a5b30	-0.18198848
121	0x3e9e525e	0.30922216
122	0xbdd74718	-0.10511607
123	0x3e9be0b0	0.3044486
124	0x3be41f80	0.006961763
125	0xbea90729	-0.33013275
126	0x3ebcbaa7	0.36861154
127	0xbdfabd28	-0.1224311

encoder_edge.3.bias f4 [16]
0	0xbea0121d	-0.3126382
1	0xbe41b150	-0.18915296
2	0xbe604d9e	-0.21904609
3	0x3e9299a5	0.28632846
4	0xbcec5152	-0.02884737
5	0x3ef0f49e	0.47061628
6	0xbd924151	-0.07141364
7	0x3d4142b1	0.047182743
8	0x3e675a5f	0.22593068
9	0xbe8dae8f	-0.2767224
10	0xbbce0dfd	-0.0062882886
11	0xbf07b609	-0.5301214
12	0x3d380d5d	0.04493462
13	0x3ef0bd11	0.47019246
14	0xbe1328a9	-0.1437098
15	0xbd38a59a	-0.045079805

core_layers.core_0.edge_model.edge_mlp1.0.weight f4 [32, 32]
0	0x3d0036e8	0.031302363
1	0xbe44cd87	-0.19219027
2	0x3e9357f7	0.2877805
3	0x3df126d8	0.11774987
4	0xbdb2b172	-0.08725251
5	0x3e2ef710	0.17086434
6	0xbd713068	-0.058884054
7	0x3ba29440	0.0049615204
8	0x3e564672	0.2092531
9	0x3e428b50	0.18998456
10	0xbdec6a66	-0.115437314
11	0x3db7dcb4	0.08977643
12	0x3dc22bd8	0.09481019
13	0x3e14fea4	0.14550263
14	0xbd789bd4	-0.060695484
15	0xbdaf26ae	-0.085522994
16	0x3e2c87f1	0.16848733
17	0x3dfbffc2	0.12304641
18	0xbe23b729	-0.15987839
19	0xbe976907	-0.29572317
20	0xbea28763	-0.31743917
21	0xbe8ba59f	-0.27274796
22	0x3ee369d7	0.44416687
23	0xbeb50f7d	-0.3536338
24	0xbef3e117	-0.47632667
25	0xbe161fd9	-0.14660586
26	0xbe9f9bc6	-0.31173533
27	0xbeda9610	-0.42692614
28	0xbe9b4734	-0.3032776
29	0xb8f399db	-0.00011615801
30	0xbf5cd912	-0.86268723
31	0xbe0bda47	-0.13657485
32	0x3c61ade0	0.013774365
33	0x3e5e6af6	0.2172049
34	0x3d91620c	0.07098779
35	0xbe8731a4	-0.2640506
36	0x3e971eb1	0.29515603
37	0xbe4903b2	-0.19630316
38	0xbe75c16c	-0.23999566
39	0xbd89e188	-0.0673247
40	0xbe62555f	-0.22102879
41	0x3e16ea9e	0.14737937
42	0x3e8bd9d5	0.2731463
43	0x3c9f6eb0	0.01946196
44	0xbd287b38	-0.041133136
45	0xbdb6ac60	-0.08919597
46	0x3e1da2a6	0.15394077
47	0xbe2c8e12	-0.1685107
48	0x3dc94b2b	0.0982879
49	0xbe049e3e	-0.1295099
50	0xbec7ea38	-0.39045882
51	0x3dbf596f	0.0934323
52	0x3e2c85b3	0.16847877
53	0x3e15cae0	0.14628172
54	0x3e8e4360	0.27785778
55	0xbe32f3c9	-0.17475809
56	0xbdcd6f43	-0.10030987
57	0x3ce3cca2	0.027807537
58	0xbeda53a9	-0.42641953
59	0xbe18d980	-0.1492672
60	0xbeb04d91	-0.34434178
61	0xbe6e089e	-0.23245475
62	0xbe710a07	-0.23538981
63	0xbdddafb6	-0.1082453
64	0xbe9a697e	-0.3015861
65	0xbe8fb09a	-0.28064424
66	0x3d96239c	0.07331011
67	0xbd246ad8	-0.040140957
68	0x3cb8d810	0.022563964
69	0x3e9af043	0.3026143
70	0xbe31ddec	-0.17369813
71	0x3e9a209d	0.30103007
72	0x3df369bc	0.118854016
73	0xbd042bf0	-0.032268465
74	0x3e2456a4	0.16048676
75	0xbdb31e50	-0.08746016
76	0x3e800ebb	0.25011238
77	0xbd936080	-0.0719614
78	0xbe82fcb8	-0.25583434
79	0x3d4228b8	0.047402114
80	0x3e1bc778	0.1521281
81	0x3eaa4a9d	0.3326005
82	0x3d912775	0.07087604
83	0x3e1ce3ab	0.15321223
84	0xbe2bbfe0	-0.16772413
85	0x3e48eb02	0.19620898
86	0xbd947dc0	-0.072505474
87	0x3dc6b548	0.097025454
88	0xbdacbcaf	-0.08434426
89	0x3ea288d7	0.31745026
90	0xba918c75	-0.0011104482
91	0x3d854dcf	0.065089814
92	0x3e90bfd1	0.28271344
93	0x3e6b4e30	0.22979045
94	0x3e158acd	0.1460373
95	0x3e8a0ac8	0.2696135
96	0x3e816f6f	0.2528033
97	0x3e9b58b3	0.3034111
98	0x3e925b71	0.2858539
99	0x3e2bf50e	0.167927
100	0x3e829569	0.25504616
101	0xbdf8a0c0	-0.12140036
102	0xbcf7d300	-0.03025198
103	0xbc6bb2c0	-0.014385879
104	0x3e4c0816	0.1992496
105	0xbe959744	-0.2921697
106	0x3e5e18d6	0.21689162
107	0x3dfad7e4	0.12248209
108	0xbe8398ce	-0.25702518
109	0xbe3dbd18	-0.18529165
110	0x3e9c80ab	0.30566916
111	0xbe8ae35a	-0.2712658
112	0x3e1a0074	0.15039235
113	0xbd833906	-0.06407361
114	0xbe6a66bf	-0.22890757
115	0x3cf1c9d0	0.029515177
116	0x3e3162e5	0.17322882
117	0xbe6063de	-0.21913096
118	0x3ea15c6a	0.3151582
119	0xbe861989	-0.26191357
120	0xbcb84414	-0.0224934
121	0x3e4c2fd3	0.19940118
122	0x3e8128ce	0.25226444
123	0x3e5d312b	0.21600787
124	0xbdefd22f	-0.11710011
125	0x3dad5a54	0.08464494
126	0xbec0da56	-0.37666577
127	0x3ea8f588	0.32999825
128	0xbe271778	-0.16317546
129	0xbe053b4f	-0.13010906
130	0xbe49702e	-0.196717
131	0x3e640136	0.22266087
132	0xbe2c5352	-0.16828659
133	0x3d9fe9b8	0.0780825
134	0x3e623ee2	0.220943
135	0xbc9d9140	-0.0192343
136	0xbdde05d4	-0.108409554
137	0xbe905c7b	-0.28195557
138	0x3e9a6e07	0.3016207
139	0xbe6b8a42	-0.2300196
140	0xbda674ea	-0.08127768
141	0x3dcc0dd0	0.09963572
142	0xbe7144bd	-0.23561378
143	0x3e8b86a5	0.27251163
144	0x3eb2eb64	0.34945214
145	0x3ecd6620	0.40116978
146	0x3eba67b8	0.36407256
147	0x3d6822be	0.056673758
148	0x3e68001d	0.22656293
149	0x3e3f7e2f	0.18700479
150	0x3ddca93d	0.10774467
151	0xbce2ad8b	-0.027670642
152	0xbe357153	-0.17719011
153	0x3e3c2309	0.1837274
154	0x3e85f879	0.26166132
155	0xbd075dd0	-0.03304845
156	0x3df78d62	0.120875135
157	0x3e8f1881	0.27948382
158	0x3e72cf5b	0.23711912
159	0xbd9185ce	-0.07105599
160	0xbe74f851	-0.2392285
161	0x3e9c1fa5	0.30492893
162	0xbe86319a	-0.26209718
163	0xbd975d3e	-0.073908314
164	0x3e68e236	0.22742543
165	0xbe59bbae	-0.21263
166	0xbe93bc96	-0.28854817
167	0xbe0ea822	-0.13931325
168	0xbd5a4f18	-0.053298086
169	0x3e37bf20	0.17944002
170	0xbe419b1c	-0.18906826
171	0x3c6c73c0	0.014431894
172	0xbdf76b1a	-0.12080975
173	0xbe364e37	-0.17803274
174	0x3e905acd	0.28194275
175	0xbe01ccff	-0.12675856
176	0xbdb1cffb	-0.08682247
177	0xbe213be2	-0.157455
178	0x3ee9c820	0.45660496
179	0x3e847e50	0.2587762
180	0x3e25cd7c	0.16191667
181	0x3dc6232a	0.09674676
182	0xbd9f3a62	-0.077748075
183	0x3eab01c9	0.333998
184	0x3e07c624	0.13259178
185	0x3e56c53a	0.20973673
186	0x3e15dd08	0.14635098
187	0xbda5359c	-0.08066866
188	0x3b7daf2b	0.0038709145
189	0x3c4a8259	0.012360179
190	0xbd90ce14	-0.07070556
191	0x3cc2fe14	0.023802795
192	0xbe4b3078	-0.19842708
193	0xbc4d9760	-0.012548298
194	0x3e066cf4	0.131275
195	0xbc92b2f0	-0.01790759
196	0x3e52db86	0.20591554
197	0x3d8b39a0	0.067981005
198	0xbe08a72c	-0.13345021
199	0xbe83e6bb	-0.2576197
200	0x3e39a322	0.18128636
201	0xbd711024	-0.058853284
202	0xbe66135c	-0.22468323
203	0xbe626d99	-0.2211212
204	0xbe64c484	-0.2234059
205	0xbe3b2f92	-0.18279865
206	0x3e16a620	0.14711809
207	0x3e4d75ce	0.2006447
208	0xbeabc836	-0.33551186
209	0xbe7c6bbf	-0.24650477
210	0x3e2e68bc	0.1703214
211	0x3db87a96	0.090077564
212	0xbe5cd146	-0.21564206
213	0x3e0512e4	0.12995487
214	0xbe3682b0	-0.17823291
215	0xbe32c5a4	-0.17458206
216	0xbd80d746	-0.0629106
217	0xbdcdcbb0	-0.10048616
218	0xbe91fed1	-0.28514722
219	0xbe819172	-0.25306278
220	0xbe62e82e	-0.22158882
221	0xbc85774b	-0.016292235
222	0xbe188853	-0.14895754
223	0x3d987ab9	0.074452825
224	0xbd87c4b6	-0.066293165
225	0x3d81e8b0	0.0634321
226	0x3e819e13	0.25315914
227	0xbe190f8d	-0.14947338
228	0xbdefc47c	-0.11707398
229	0x3e3b7298	0.18305433
230	0xbe739c82	-0.23790172
231	0xbcc9dc80	-0.024641275
232	0xbe0764c7	-0.13222037
233	0x3dc6d354	0.097082764
234	0x3e949f67	0.29027864
235	0xbe3d993c	-0.18515486
236	0x3e2e4dde	0.17021891
237	0xbce9f450	-0.02855888
238	0xbd9dab76	-0.07698719
239	0x3e52577a	0.20541182
240	0x3e9c42ce	0.30519718
241	0xbcfd37d2	-0.030910406
242	0x3d85a598	0.06525725
243	0xbe899290	-0.2686963
244	0xbd97038f	-0.073737256
245	0xbd2ca00d	-0.042144824
246	0x3ef20187	0.4726679
247	0x3e0f0513	0.1396678
248	0xbe722d44	-0.2365008
249	0xbd3531e2	-0.044237025
250	0x3e85ca4c	0.26130903
251	0xbd3254bb	-0.043537837
252	0xbe6c5e78	-0.23082912
253	0x3e262c1d	0.16227765
254	0xbe7b80ad	-0.24560805
255	0xbe31aa26	-0.17350063

core_layers.core_0.edge_model.edge_mlp1.0.bias f4 [32]
0	0x3f2a869b	0.6661164
1	0x3cd41d3e	0.02589285
2	0xbe2c5808	-0.16830456
3	0x3e7d7c09	0.24754347
4	0xbdbc58e7	-0.09196644
5	0xbe7c34cb	-0.24629514
6	0xbc0af675	-0.0084816115
7	0x3eadab02	0.3391953
8	0x3e4dea57	0.20108925
9	0x3ee40729	0.44536713
10	0x3ee3097b	0.4434317
11	0xbc2b8755	-0.010469277
12	0x3e5f25f4	0.21791822
13	0x3ebfaea6	0.37437934
14	0xbdd27a88	-0.10277277
15	0xbd6a12d9	-0.05714688
16	0x3e902c37	0.28158733
17	0x3e24d3a9	0.16096367
18	0x3e98acc6	0.29819316
19	0x3d53ab31	0.051676933
20	0x3e8608ab	0.26178488
21	0xbbd4802f	-0.0064850072
22	0x3e31250c	0.17299289
23	0xbd217447	-0.03941753
24	0x3e79d7e4	0.24398762
25	0x3ea2609f	0.3171434
26	0xbe7dba2f	-0.24778055
27	0x3eba07ce	0.3633408
28	0x3e8a9d9a	0.27073365
29	0xbe22ecc6	-0.15910634
30	0xbeafaa71	-0.34309724
31	0xbe739735	-0.2378815

core_layers.core_0.edge_model.edge_mlp1.3.weight f4 [16, 32]
0	0x3f1147a3	0.56749934
1	0x3e864541	0.26224712
2	0xbeb68432	-0.35647732
3	0x3e733469	0.23750462
4	0xbf15e97a	-0.5855938
5	0xbef5732a	-0.47939426
6	0x3eecbda4	0.46238434
7	0x3ef8fe71	0.48631623
8	0xbea3a814	-0.3196417
9	0x3f087891	0.5330897
10	0x3f263b65	0.6493438
11	0xbd4cb63f	-0.04997849
12	0xbd649288	-0.055803806
13	0x3f00c8d3	0.50306433
14	0xbecb899c	-0.39753425
15	0xbd8fec78	-0.07027525
16	0x3e966a6d	0.2937807
17	0x3d77fb2d	0.060542274
18	0xbe85cb34	-0.26131594
19	0xbf32ada9	-0.69796234
20	0x3e9e86ca	0.3096221
21	0xbb7c6823	-0.0038514219
22	0xbe810b3a	-0.25203878
23	0xbebadfc9	-0.3649886
24	0xbf25b280	-0.64725494
25	0x3c605415	0.013691922
26	0xbe57eeeb	-0.21087234
27	0x3ed05b51	0.4069467
28	0x3f030528	0.5117974
29	0x3e045037	0.12921225
30	0x3cee0900	0.029057026
31	0xbcb2ccb4	-0.021826126
32	0x3e2666f9	0.16250218
33	0xbdd39968	-0.10331994
34	0xbd78d5d0	-0.060750782
35	0xbe908679	-0.28227594
36	0xbeeb1c98	-0.45920253
37	0x3e4b6c24	0.19865471
38	0xbe1d0049	-0.1533214
39	0xbd56ea4b	-0.052469533
40	0xbe85f798	-0.26165462
41	0xbf084115	-0.5322431
42	0x3dea2b44	0.114340335
43	0xbda929b1	-0.08259905
44	0xbe0d9b62	-0.13828805
45	0x3e117898	0.14206159
46	0xbe123fcb	-0.14282148
47	0xbe19460f	-0.14968131
48	0x3e25984d	0.1617138
49	0xbd2a5536	-0.04158517
50	0x3b2e5ffe	0.0026607509
51	0xbe677b88	-0.22605717
52	0xbe885e5e	-0.26634496
53	0xbe89dc4b	-0.26925883
54	0x3e5bd63f	0.21468447
55	0x3e4eef43	0.20208459
56	0xbd8eb206	-0.06967549
57	0xbcff7a98	-0.031186387
58	0x3b96e91e	0.0046054265
59	0x3d8109cc	0.06300697
60	0xbe2f629b	-0.17127459
61	0xbe1884f7	-0.14894472
62	0x3c771723	0.0150812
63	0xbdb3463b	-0.0875363
64	0xbeacf64e	-0.33781666
65	0xbe880c64	-0.26571953
66	0x3ea8e629	0.32988098
67	0xbe5958f9	-0.21225347
68	0xbcf48d31	-0.029852482
69	0x3e6ef815	0.23336823
70	0x3e2ba754	0.1676305
71	0x3e63b63e	0.22237489
72	0xbbc0e7c6	-0.0058870045
73	0xbd91b93f	-0.07115411
74	0xbf069a24	-0.5257895
75	0x3ebdcb76	0.3706929
76	0x3e9162dd	0.2839574
77	0xbeac6c94	-0.3367659
78	0x3eabfd2b	0.3359159
79	0x3e9a91ec	0.30189455
80	0x3d869936	0.065721914
81	0x3e36946a	0.17830053
82	0x3d28bfc4	0.041198507
83	0x3e87bc38	0.26510787
84	0xbe7e997e	-0.2486324
85	0x3e449ce1	0.1920047
86	0xbe50ef9d	-0.20403905
87	0x3d9ab42e	0.07553898
88	0x3e9237f6	0.2855832
89	0xbe9d59cc	-0.30732572
90	0x39f8f102	0.0004748181
91	0x3e5850af	0.21124528
92	0xbea2bdd1	-0.31785443
93	0x3e3837da	0.17990056
94	0x3e180d04	0.14848715
95	0xbcb3702c	-0.021904074
96	0xbea1ac91	-0.3157697
97	0xbeb24c6d	-0.34823933
98	0x3d429bd1	0.04751188
99	0xbddc8212	-0.107669964
100	0x3e74c941	0.23904897
101	0x3dfd3fa6	0.123656556
102	0xbe15f4df	-0.14644192
103	0xbe12ad4c	-0.1432392
104	0xbd93ed8f	-0.07223045
105	0xbe841e5a	-0.25804406
106	0xbd218f35	-0.039443213
107	0xbecfccea	-0.40586025
108	0xbcd1b831	-0.025600525
109	0x3e1e875b	0.15481322
110	0x3dd4c31b	0.10388776
111	0x3e96b72b	0.2943662
112	0xbe104f63	-0.14092784
113	0x3dc654f3	0.096841715
114	0xbd04437d	-0.032290924
115	0xbdd85050	-0.105621934
116	0x3afd13a9	0.0019308227
117	0xbe0b2d54	-0.1359151
118	0x3f162914	0.5865643
119	0xbe622296	-0.22083506
120	0x3e33c64d	0.17556114
121	0xbc828a27	-0.015935017
122	0xbdb8777b	-0.09007164
123	0xbe4a2522	-0.19740728
124	0xbe7d56ed	-0.24740191
125	0x3e9742fb	0.2954329
126	0xbe4b5528	-0.19856703
127	0x3ea94d56	0.33066815
128	0x3e8d62ef	0.27614543
129	0x3ea048fc	0.31305683
130	0xbb0cce04	-0.00214851
131	0xbe81a7a4	-0.25323212
132	0xbe9d9f66	-0.30785674
133	0xbd839ce9	-0.064264126
134	0xbe39fdf0	-0.18163276
135	0xbe5894d8	-0.2115053
136	0x3db8a9ba	0.09016748
137	0x3dc14d4d	0.09438572
138	0xbda81453	-0.082070015
139	0x3e3a32e4	0.18183476
140	0xbeb0bb29	-0.34517792
141	0x3de001d4	0.10937849
142	0x3c290051	0.010315017
143	0xbec3062c	-0.38090646
144	0x3e9d9a35	0.30781713
145	0xbdb87fd4	-0.09008756
146	0x3b7ea830	0.0038857572
147	0xbec09b96	-0.37618703
148	0xbe030438	-0.12794578
149	0x3e287df4	0.16454297
150	0xbeeafc90	-0.45895815
151	0xbd60ee83	-0.054914963
152	0xbee1acc9	-0.44077137
153	0x3ebf35a4	0.37345612
154	0x3ed463d3	0.4148241
155	0xbe670238	-0.2255944
156	0xbe5b9f66	-0.21447524
157	0x3e46278b	0.19351022
158	0xbdd62df1	-0.104579814
159	0x3dd54afe	0.10414694
160	0xbd54d41c	-0.051960096
161	0xbe379ba2	-0.17930463
162	0x3eb0125e	0.34389013
163	0x3e3aa3fe	0.1822662
164	0x3e9d4373	0.30715522
165	0x3e2f2899	0.1710533
166	0xbe8c9da1	-0.2746401
167	0xbdc1d6fb	-0.094648324
168	0xbc1dfbf4	-0.00964259
169	0xbc876079	-0.016525494
170	0xbd911782	-0.07084562
171	0xbdd87c60	-0.10570598
172	0x3d146078	0.036224812
173	0x3c10b3a0	0.008831888
174	0xbddac9b8	-0.10683006
175	0xbd53e0ea	-0.051728167
176	0x3c636cf0	0.013880953
177	0xbe3199ae	-0.1734378
178	0x3e2ea8bb	0.17056553
179	0x3e773f07	0.24145137
180	0xbe74aa06	-0.23892984
181	0xbe791152	-0.24323013
182	0x3ace8b0d	0.0015757993
183	0xbd7156e1	-0.058920745
184	0xbdd900f6	-0.105958864
185	0x3e8507e9	0.25982597
186	0x3d4eb8b0	0.0504691
187	0x3e800f85	0.2501184
188	0xbcc51559	-0.02405803
189	0xbedf8eed	-0.4366373
190	0x3af65f50	0.0018796716
191	0x3e8c0dc0	0.2735424
192	0x3f050e64	0.51975083
193	0x3e2e58eb	0.17026107
194	0xbe1d6ac0	-0.15372753
195	0x3f3b5443	0.7317545
196	0xbd206600	-0.039159775
197	0xbe0cdf5b	-0.13757078
198	0xbd8d6bd7	-0.069053344
199	0x3d5837c1	0.052787546
200	0xbd965000	-0.073394775
201	0x3ebf9c0e	0.37423748
202	0x3edcd723	0.43132886
203	0xbea0df85	-0.31420532
204	0xbed7a197	-0.4211547
205	0x3edca0eb	0.4309152
206	0xbe81025c	-0.25197113
207	0xbe8bf08a	-0.27331954
208	0x3e7e5e37	0.24840628
209	0xbe234a75	-0.15946372
210	0xbeb3b5ab	-0.3509954
211	0xbf60a04f	-0.8774461
212	0x3f03a212	0.51419175
213	0x3d9843bd	0.07434795
214	0xbe2af663	-0.16695552
215	0xbe97aa10	-0.29621935
216	0xbf43f745	-0.7654918
217	0x3ef3a1f2	0.47584492
218	0x3cfb37fd	0.030666346
219	0x3df31fd9	0.11871309
220	0x3f15218a	0.582543
221	0xbea33708	-0.31877923
222	0xbc83f011	-0.016105684
223	0xbdd8090d	-0.10548601
224	0xbe14a46f	-0.14515851
225	0x3eda2a2c	0.426103
226	0x3e407a09	0.18796553
227	0x3ec77916	0.3895957
228	0xbd135e36	-0.03597852
229	0x3d9a4a48	0.07533699
230	0xbd359745	-0.044333715
231	0x3de3d999	0.11125488
232	0xbdca87ac	-0.098891586
233	0xbd5ae009	-0.053436313
234	0x3e56a55e	0.2096152
235	0xbe765d72	-0.24059084
236	0xbea9c769	-0.3315995
237	0x3e8ebd22	0.27878672
238	0x3c53b2e9	0.0129210735
239	0xbef8bdbb	-0.48582253
240	0x3d2aae14	0.04166992
241	0xbed902ed	-0.42385045
242	0xbe8baad1	-0.2727876
243	0xbec5b3b8	-0.38613677
244	0xbe8213d4	-0.25405753
245	0x3c626ffe	0.013820646
246	0x3eabaf38	0.3353212
247	0x3e127326	0.14301738
248	0xbe9914ba	-0.29898626
249	0xbe8c7ba3	-0.27438077
250	0xbdee8438	-0.116463125
251	0x3ca32d57	0.01991908
252	0x3e70e9e1	0.23526718
253	0x3e7042fa	0.2346305
254	0x3e9211bf	0.28529164
255	0xbd5b451d	-0.05353271

core_layers.core_0.edge_model.edge_mlp1.3.bias f4 [16]
0	0x3f2120d4	0.62940717
1	0xbe1dd2d4	-0.15412456
2	0xbde1dae5	-0.11028079
3	0xbe31dc3e	-0.17369172
4	0x3d9ce958	0.07661694
5	0xbe9073a4	-0.28213227
6	0x3f04e655	0.5191396
7	0xbe3267d1	-0.17422415
8	0x3df27134	0.11837998
9	0xbe478bd1	-0.1948693
10	0xbe0777db	-0.13229315
11	0x3e31205e	0.17297503
12	0x3c1b1198	0.009464644
13	0x3ddabd29	0.10680611
14	0xbbb139e9	-0.0054085148
15	0x3f051e86	0.519997

core_layers.core_0.edge_model.edge_mlp2.0.weight f4 [32, 32]
0	0x3d5759f9	0.05257604
1	0x3f1206cb	0.57041615
2	0x3ed14c32	0.40878445
3	0xbdcd71d2	-0.10031475
4	0xbe8a0020	-0.2695322
5	0x3d8176c2	0.063214794
6	0xbeb40349	-0.35158756
7	0xbe103cd7	-0.14085709
8	0xbe9255e6	-0.2858116
9	0xbe170e4c	-0.14751548
10	0x3e782976	0.24234566
11	0xbeac6828	-0.33673215
12	0xbd68c9d8	-0.05683312
13	0x3e2ef1f0	0.1708448
14	0xbdf75bcd	-0.120780565
15	0x3f01a883	0.50647753
16	0xbd3dc754	-0.046332672
17	0x3da593f3	0.0808486
18	0x3ef991bf	0.48744008
19	0xbcc3621c	-0.023850493
20	0x3e55d26f	0.20881055
21	0xbe5fd34e	-0.2185795
22	0xbec30baf	-0.3809485
23	0x3e3c877d	0.1841106
24	0x3eac2f1d	0.33629695
25	0x3eb63959	0.35590628
26	0x3e8a2a1d	0.26985255
27	0x3e2462e5	0.1605335
28	0x3e43e574	0.19130498
29	0xbe6a0b7b	-0.22855942
30	0x3e8aceaa	0.27110797
31	0xbd68ee5c	-0.056867942
32	0xbda6088d	-0.081071
33	0xbef22ab5	-0.47298208
34	0xbe32ae35	-0.17449267
35	0xbecf6251	-0.40504697
36	0x3ea9460f	0.33061263
37	0xbf306cf4	-0.6891625
38	0x3ea36bbe	0.31918138
39	0xbdef9690	-0.116986394
40	0x3dfd41d9	0.12366075
41	0xbee462cc	-0.44606626
42	0xbeabf5b5	-0.33585897
43	0x3e88be26	0.26707572
44	0x3d78f01b	0.060775857
45	0xbf403a6b	-0.7508914
46	0xbe0aeefc	-0.13567728
47	0xbef04716	-0.46929234
48	0xbc808f50	-0.015693337
49	0x3ca08685	0.019595394
50	0xbf038722	-0.5137807
51	0xbdbec93b	-0.093157254
52	0x3dce1041	0.10061694
53	0x3e59f041	0.21283056
54	0x3f09e964	0.5387175
55	0x3e27fc72	0.16404894
56	0xbe8e7c7f	-0.27829358
57	0xbedb6c58	-0.42856097
58	0x3e394661	0.18093254
59	0x3e3b38fd	0.18283458
60	0xbe9c8651	-0.30571225
61	0xbe1831d0	-0.14862752
62	0xbf324b4b	-0.6964614
63	0x3cea41c6	0.028595816
64	0xbeb904a7	-0.36136362
65	0x3ee55e13	0.44798335
66	0x3ed338f9	0.41254404
67	0x3f0247b4	0.5089066
68	0xbe14990a	-0.14511505
69	0xbdf459f5	-0.119312204
70	0xbee3d1dc	-0.44496047
71	0xbe016499	-0.12636031
72	0xbe1dc23a	-0.15406123
73	0x3bf640f6	0.007515068
74	0xbda4c994	-0.080462605
75	0xbea30f09	-0.31847408
76	0x3e3c5491	0.18391635
77	0x3d0da0e8	0.03457728
78	0xbd276835	-0.040870864
79	0x3d8a7f44	0.06762555
80	0xbec06677	-0.37578174
81	0x3e87fe88	0.2656138
82	0xbe0b0b65	-0.13578565
83	0x3e01ddae	0.1268222
84	0x3ca6c653	0.02035824
85	0x3e73cde7	0.23809014
86	0xbf163123	-0.58668727
87	0x3f17bef9	0.59275776
88	0xbca455ab	-0.02006038
89	0x3f06cdbd	0.5265768
90	0x3eaa35ec	0.33244264
91	0x3da620d2	0.08111729
92	0x3e12c187	0.14331637
93	0xbe1ce9f7	-0.15323626
94	0xbc87a390	-0.016557485
95	0x3ee52719	0.44756392
96	0xbe80b8e7	-0.2514107
97	0x3d803e86	0.062619254
98	0xbdffaa77	-0.124836855
99	0x3e9e6421	0.30935767
100	0xbe20c615	-0.15700562
101	0x3e801683	0.25017175
102	0xbdc8ebea	-0.09810622
103	0x3e57f2da	0.21088734
104	0x3e0357ad	0.12826414
105	0x3e534252	0.20630768
106	0xbd6394ce	-0.055561833
107	0xbf213eee	-0.6298665
108	0x3e8e906f	0.2784457
109	0x3ea96c25	0.3309032
110	0x3e06f12b	0.13177936
111	0xbe401116	-0.18756518
112	0x3e98ccd8	0.29843783
113	0x3ebf7f3e	0.37401766
114	0x3afc3a30	0.0019243415
115	0x3f275453	0.65363044
116	0x3e6b32be	0.22968575
117	0x3e8d7061	0.276248
118	0xbe9e65cf	-0.3093705
119	0x3ee9db1e	0.45674986
120	0xbdf76bd7	-0.12081116
121	0x3ea400d7	0.3203189
122	0x3da308ee	0.079606876
123	0x3f0ce366	0.5503448
124	0x3d895578	0.06705755
125	0x3e9bf537	0.30460522
126	0x3ec320c6	0.38110942
127	0xbe4e38c1	-0.20138837
128	0xbe30c740	-0.17263508
129	0xbd74006b	-0.05957071
130	0x3bc55f47	0.006023321
131	0xbd35c235	-0.044374663
132	0x3e180e5e	0.1484923
133	0x3cb01483	0.021494156
134	0xbda77ef5	-0.08178512
135	0x3dad1ea4	0.0845311
136	0xbdb29af0	-0.08720958
137	0xbe12a8af	-0.1432216
138	0xbdbe5350	-0.09293234
139	0xbe11dfa4	-0.14245468
140	0x3e95f968	0.29291844
141	0x3de60ad3	0.11232533
142	0xbcc879f8	-0.024472222
143	0xbe744752	-0.23855332
144	0x3e8c809a	0.27441865
145	0xbe69926a	-0.22809759
146	0xbe15fadc	-0.14646477
147	0xbd5c5445	-0.053791303
148	0x3e894553	0.26810703
149	0xbc4dae0e	-0.012553705
150	0x3de57517	0.11203974
151	0xbd1190a8	-0.035538346
152	0x3d60ceaa	0.05488459
153	0x3c9fe681	0.019519093
154	0x3db15835	0.08659402
155	0x3dbd48ff	0.092424385
156	0xbe56cb2f	-0.20975946
157	0xbe13ae7e	-0.14422032
158	0x3e8d9d84	0.27659237
159	0x3d26e993	0.040750097
160	0xbd9f7446	-0.07785849
161	0xbd5916e9	-0.053000364
162	0xbe71bb09	-0.23606504
163	0x3dbc7c4f	0.092033975
164	0x3e16102a	0.14654604
165	0xbea951ee	-0.3307032
166	0x3e46145e	0.19343707
167	0xbd9ad4f8	-0.07560152
168	0x3e242d24	0.16032845
169	0xbe953d99	-0.29148558
170	0xbe059581	-0.13045312
171	0xbe406017	-0.18786655
172	0xbeb88f49	-0.36046818
173	0xbf04b3a4	-0.5183661
174	0xbe5dc372	-0.21656588
175	0x3d13ae39	0.036054824
176	0xbe240ab3	-0.16019706
177	0xbef19d4d	-0.47190323
178	0x3d314f49	0.043288503
179	0x3e3d5c76	0.18492302
180	0x3d159380	0.03651762
181	0xbe858203	-0.26075754
182	0x3e899506	0.26871508
183	0xbedc10f6	-0.4298169
184	0xbe2b29f3	-0.16715221
185	0xbb9ef7d9	-0.004851323
186	0x3e058c92	0.13041905
187	0xbea89c38	-0.32931685
188	0xbeef6ac2	-0.46761137
189	0x3e474503	0.1945992
190	0xbebe49eb	-0.3716577
191	0xbd14cb99	-0.03632698
192	0x3f1f2cc8	0.62177706
193	0xbe9e235a	-0.30886346
194	0xbf02c43c	-0.5108068
195	0xbf162049	-0.58643013
196	0x3ef189e3	0.47175512
197	0xbe469eac	-0.19396466
198	0x3e9a8f0b	0.30187258
199	0xbe15a8b5	-0.14615138
200	0x3e467ebe	0.19384286
201	0xbeb1f887	-0.34759924
202	0xbecc5c72	-0.3991428
203	0x3f24f4da	0.64436114
204	0xbe9efe9a	-0.3105362
205	0xbee410ac	-0.4454397
206	0xbe9835e1	-0.29728606
207	0xbf5ba59d	-0.8579958
208	0x3dfee7d3	0.12446561
209	0xbe21fc06	-0.15818796
210	0xbe9a4c4e	-0.3013634
211	0xbf06bcba	-0.52631724
212	0xbe62740e	-0.22114584
213	0xbf355d37	-0.7084536
214	0x3f082f77	0.53197426
215	0xbe62e577	-0.22157846
216	0xbf3b2b0a	-0.7311255
217	0xbe863a62	-0.26216418
218	0xbe5fc00a	-0.21850601
219	0xbe39da06	-0.18149576
220	0xbf33390b	-0.70008916
221	0xb9ae9bd7	-0.00033303976
222	0xbf783194	-0.9695065
223	0xbec2c1ca	-0.38038474
224	0xbf0363f6	-0.51324403
225	0x3e80ebbe	0.25179857
226	0xbe1eb593	-0.15498953
227	0x3e2bbb9d	0.16770788
228	0xbe387d72	-0.18016604
229	0xbd0e43c4	-0.034732595
230	0xbe5ffc62	-0.2187362
231	0x3e353888	0.17697346
232	0xbe1ae1f5	-0.15125258
233	0x3e7346e8	0.23757517
234	0xbd2e6780	-0.042579174
235	0xbf1599da	-0.58437884
236	0x3ee4aa95	0.44661394
237	0x3e643b4d	0.22288246
238	0x3e905aa7	0.28194162
239	0x3eaed829	0.34149292
240	0x3e86547c	0.2623633
241	0x3f5d6bf8	0.8649287
242	0x3ec661f1	0.38746598
243	0x3e0cb212	0.13739803
244	0x3f273265	0.6531127
245	0x3ef8edad	0.48618832
246	0xbd9952bd	-0.07486484
247	0x3f4cafa3	0.799555
248	0x3eeaca3d	0.4585742
249	0x3ea0583b	0.31317315
250	0x3dd84da4	0.10561684
251	0x3e3f73e7	0.18696557
252	0x3e2bbe87	0.16771899
253	0xbe620379	-0.22071637
254	0xbc2c88b2	-0.010530638
255	0x3ea81b7c	0.3283347

core_layers.core_0.edge_model.edge_mlp2.0.bias f4 [32]
0	0x3d86834a	0.0656801
1	0x3e98832a	0.2978757
2	0x3eb86921	0.36017707
3	0x3ef6e841	0.4822407
4	0xbf1c00f3	-0.6093895
5	0x3e1a54e3	0.15071444
6	0x3ed330ee	0.41248268
7	0x3e519e49	0.20470537
8	0xbeb60f25	-0.3555843
9	0x3e06606a	0.13122717
10	0x3ddb5867	0.10710221
11	0xbd9a17ee	-0.075240955
12	0x3eedd1cb	0.46449122
13	0x3dc0dcd4	0.094171196
14	0x3e7ebfe1	0.24877883
15	0x3df9a372	0.12189378
16	0xbe7d3de0	-0.24730635
17	0xbcdf3473	-0.02724669
18	0xbe8e2d1f	-0.277688
19	0x3f377ae3	0.71671885
20	0xbe974ae8	-0.29549336
21	0xbdfdf399	-0.12399978
22	0x3e72aae0	0.23697996
23	0xbd2a168e	-0.041525416
24	0x3effa47c	0.4993018
25	0xbe818c82	-0.2530251
26	0x3d28564e	0.04109793
27	0xbe944738	-0.28960586
28	0xbd155a69	-0.036463175
29	0xbde9ebd9	-0.114219375
30	0xbed25612	-0.4108129
31	0x3e07e22f	0.13269876

core_layers.core_0.edge_model.edge_mlp2.3.weight f4 [16, 32]
0	0xbf4d3bac	-0.8016918
1	0x3f45a154	0.7719929
2	0xbefe8d2f	-0.4971709
3	0xbf3cb443	-0.7371256
4	0xbf1ef221	-0.6208821
5	0xbe381fbe	-0.17980859
6	0x3edc6f87	0.4305384
7	0xbf17a854	-0.59241223
8	0xbf3221bf	-0.6958274
9	0xbf257b30	-0.64641094
10	0xbe9e5d08	-0.30930352
11	0x3e5a0a7e	0.21293065
12	0x3f1814bf	0.59406656
13	0x3e957779	0.29192713
14	0x3e9935e8	0.2992394
15	0xbf1bdca4	-0.60883546
16	0xbeebe336	-0.46071786
17	0xbf4b139d	-0.793268
18	0xbf24dedd	-0.6440256
19	0xbf201d8a	-0.62545073
20	0xbe8921f3	-0.26783714
21	0xbe3835fb	-0.17989342
22	0x3bf0901e	0.007341399
23	0xbd9bcac9	-0.076070376
24	0x3eba2a4b	0.36360392
25	0xbf11eb32	-0.56999505
26	0xbe7ceee9	-0.24700512
27	0xbeebdd90	-0.46067476
28	0xbf4f1ce8	-0.8090348
29	0xbf57f80e	-0.84362876
30	0xbeff19b3	-0.49824294
31	0xbf30ac8a	-0.69013274
32	0xbe7cafa0	-0.2467637
33	0x3f1388a3	0.57630366
34	0xbf167572	-0.5877296
35	0xbed97894	-0.42474806
36	0xbf166b7f	-0.58757776
37	0xbecdba2b	-0.40181097
38	0x3f02ca7b	0.5109021
39	0xbe97b452	-0.2962976
40	0xbf34ae01	-0.7057801
41	0xbeb38a6f	-0.35066554
42	0xbe92373b	-0.28557763
43	0x3d2ce08d	0.042206336
44	0x3e02919a	0.12750855
45	0xbeaa0e8a	-0.33214217
46	0x3acc37e0	0.0015580617
47	0xbe980063	-0.29687795
48	0xbddf6b30	-0.10909116
49	0xbd1a7ba7	-0.03771558
50	0xbe9cba51	-0.30610898
51	0xbd647e5e	-0.055784576
52	0xbe1dae70	-0.15398574
53	0xbe782213	-0.24231748
54	0x3ed462db	0.4148167
55	0xbf0a31d8	-0.53982306
56	0x3e9076fb	0.28215775
57	0xbe90faf8	-0.28316474
58	0xbee1f81c	-0.44134605
59	0xbedb1c56	-0.42795056
60	0xbea3ed5d	-0.3201703
61	0xbf1254d2	-0.57160676
62	0xbeb3775f	-0.3505201
63	0xbea840a6	-0.32861823
64	0x3ee5e07f	0.4489784
65	0xbdc67850	-0.096909165
66	0x3ebc6776	0.36797684
67	0x3d8748df	0.06605696
68	0x3c6c9039	0.014438682
69	0xbf0579d0	-0.52138996
70	0xbf234f8e	-0.63793266
71	0x3e9c83c0	0.30569267
72	0xbe620166	-0.22070846
73	0x3e1eaf84	0.15496641
74	0xbe18d78a	-0.14925972
75	0xbd2e2054	-0.0425113
76	0xbf068d1a	-0.52559054
77	0x3ec43ed9	0.383292
78	0xbe668945	-0.22513302
79	0xbda28696	-0.079358265
80	0x3e76c6b4	0.24099237
81	0x3ebfa18c	0.37427938
82	0x3dc9eb48	0.098593295
83	0x3e41c7cc	0.18923873
84	0x3e528c99	0.20561446
85	0x3e3e5246	0.18586072
86	0x3d165289	0.036699805
87	0xbe81c104	-0.25342572
88	0xbf0e17a8	-0.55504847
89	0x3e0f3a9d	0.13987203
90	0xbe1617b4	-0.1465748
91	0xbd394c72	-0.04523892
92	0x3ec058b9	0.3756769
93	0x3db40f7c	0.08792016
94	0x3e56ebec	0.20988435
95	0x3ebac4d9	0.36478308
96	0x3e858479	0.2607763
97	0xbe4457b8	-0.19174087
98	0x3ed0dc8b	0.4079326
99	0x3e490c65	0.19633634
100	0xbdee1448	-0.11624962
101	0xbdbd53b3	-0.0924448
102	0xbe114675	-0.14187033
103	0x3ddf2aa1	0.10896803
104	0x3cb865fc	0.022509567
105	0x3e7d3487	0.24727069
106	0x3f028b81	0.50994116
107	0x3e4a6ec6	0.19768819
108	0xbee59793	-0.44842204
109	0x3e7ee97c	0.24893755
110	0xbeadb5ac	-0.33927667
111	0x3ea3f57c	0.32023227
112	0x3d318826	0.043342732
113	0x3dd180fb	0.10229679
114	0x3dd0fc8c	0.102044195
115	0xbd787b46	-0.060664438
116	0x3e7a81af	0.24463533
117	0x3e95e84f	0.292788
118	0x3e36fe48	0.17870438
119	0x3d809bc9	0.06279714
120	0xbd2c05e1	-0.041997794
121	0x3e332a97	0.17496715
122	0xbe85deec	-0.26146638
123	0x3e224d2f	0.15849756
124	0x3eb62ebd	0.35582533
125	0x3ecb7971	0.3974109
126	0xbe3c45c4	-0.18385988
127	0x3e434f4c	0.19073218
128	0xbe298dae	-0.16557953
129	0xbdf61fee	-0.12017809
130	0xbe5da645	-0.21645458
131	0xbcd87fe3	-0.026428169
132	0xbdf2d01a	-0.118560985
133	0x3e8b547f	0.27212903
134	0xbe028f00	-0.12749863
135	0xbe3a911e	-0.1821942
136	0xbe711e28	-0.2354666
137	0xbe509731	-0.20370175
138	0xbd5ef34d	-0.05443125
139	0x3eb4844b	0.35257182
140	0xbc7652cc	-0.015034389
141	0x3e927224	0.28602707
142	0xbdc700be	-0.097169384
143	0xbeba1934	-0.36347353
144	0xbec234f6	-0.3793103
145	0xbe10e8db	-0.14151327
146	0xbea2deb3	-0.3181053
147	0xbe810ac9	-0.2520354
148	0xbe852fb0	-0.26012945
149	0x3eccd3c2	0.40005308
150	0x3ea05453	0.31314334
151	0x3d25dcf1	0.04049391
152	0xbe444161	-0.19165565
153	0xbe4ee5e5	-0.20204885
154	0xbe29e6f0	-0.16592002
155	0xbe153671	-0.14571549
156	0x3e84021c	0.2578286
157	0xbea5a065	-0.32348934
158	0xbee7cfa3	-0.45275602
159	0xbee728fb	-0.45148453
160	0xbf088212	-0.5332347
161	0x3d63aeae	0.05558651
162	0xbe1e61d8	-0.15467012
163	0xbf094dec	-0.53634524
164	0xbd941db6	-0.072322294
165	0x3b0994b3	0.0020993173
166	0x3cc7495a	0.024326969
167	0xbecb2c74	-0.39682353
168	0x3e41a606	0.18910989
169	0xbb9b36f0	-0.0047367737
170	0xbeee5cc7	-0.46555158
171	0x3ee7f0aa	0.453008
172	0xbd69fd02	-0.057126053
173	0xbedc1595	-0.42985216
174	0xbe723aba	-0.23655215
175	0xbedf52d4	-0.4361788
176	0x3e1b8b7e	0.15189931
177	0xbd4c9d02	-0.04995442
178	0x3d9521f8	0.0728187
179	0xbedbb880	-0.429142
180	0xbe9091b1	-0.28236154
181	0xbecfd417	-0.405915
182	0x3dca517f	0.098788254
183	0x3e678967	0.22611009
184	0x3ebb1199	0.36536863
185	0x3e224938	0.15848243
186	0xbda048e1	-0.078264005
187	0xbe41b7e4	-0.18917805
188	0xbdd9a052	-0.10626282
189	0xbe276fb5	-0.16351207
190	0xbe88c7c2	-0.26714903
191	0xbdeebbb0	-0.11656892
192	0xbefb1795	-0.4904143
193	0x3e8c6877	0.2742345
194	0xbed46113	-0.41480312
195	0xbf1c9395	-0.6116269
196	0xbba3c6de	-0.004998072
197	0x3e60ff4f	0.21972392
198	0xbe344657	-0.17604958
199	0xbe610f90	-0.21978593
200	0x3d065973	0.03280015
201	0xbdbb3097	-0.09140127
202	0xbed5c1fd	-0.41749564
203	0xbe8b0c3b	-0.2715777
204	0x3dc30c31	0.0952381
205	0xbe8cca32	-0.27498013
206	0xbe8b891a	-0.27253038
207	0xbeceb351	-0.40371183
208	0xbefa8f9e	-0.48937696
209	0xbdac926a	-0.08426364
210	0xbea83276	-0.32851
211	0xbf05c67a	-0.52255976
212	0xbee6fe38	-0.4511583
213	0xbe127128	-0.14300978
214	0x3ea0bc3b	0.31393608
215	0x3c8c0793	0.017093455
216	0x3efc1b0a	0.4923938
217	0xbcb98f35	-0.022651294
218	0xbe7045de	-0.23464152
219	0xbe45efff	-0.19329832
220	0xbe61f09a	-0.22064438
221	0xbeb9b5a4	-0.36271393
222	0xbdf89b76	-0.12139027
223	0xbdffaa89	-0.12483699
224	0x3e5846c3	0.21120743
225	0xbe9ecb3f	-0.3101444
226	0xbe801daa	-0.25022632
227	0x3dfcaed3	0.123380326
228	0x3e0e4f14	0.13897353
229	0xbe266991	-0.16251208
230	0xbe7001a7	-0.2343813
231	0xbe24728d	-0.16059323
232	0x3da2de28	0.07952529
233	0x3e8b1912	0.27167565
234	0x3d44fedb	0.04809461
235	0xbe542693	-0.2071784
236	0xbe4b0461	-0.19825889
237	0x3d4dbd97	0.050229635
238	0xbe57aaac	-0.210612
239	0x3ef08bc5	0.46981636
240	0xbde5e373	-0.11225023
241	0xbebc6116	-0.3679282
242	0xbd8a2750	-0.067457795
243	0x3c785056	0.015155872
244	0x3ecbf422	0.39834696
245	0xbde13a47	-0.10997444
246	0x3d8015d6	0.06254165
247	0x3ea95946	0.33075923
248	0xbe2ddbd3	-0.16978388
249	0x3e800a9c	0.25008094
250	0x3cdc0845	0.026859412
251	0x3e7f8e98	0.24956739
252	0x3ea116b9	0.3146265
253	0xbd2d3f6e	-0.04229682
254	0x3e97359d	0.2953309
255	0x3d390a8b	0.04517607

core_layers.core_0.edge_model.edge_mlp2.3.bias f4 [16]
0	0x3eed55d6	0.4635455
1	0x3ed6e2fa	0.41970044
2	0x3e1d3546	0.15352353
3	0x3e14003f	0.14453219
4	0x3d5e7188	0.05430749
5	0xbd4ce560	-0.050023437
6	0x3e7c3cc6	0.24632558
7	0xbe37e054	-0.17956668
8	0xbf0e32c6	-0.55546224
9	0x3dbc5a59	0.0919692
10	0x3f244861	0.6417294
11	0x3e71a2c7	0.23597251
12	0x3e8d355d	0.27579775
13	0x3f2a3944	0.6649363
14	0x3e3bb9b8	0.18332565
15	0xbe66d410	-0.22541833

core_layers.core_0.node_model.wAggregation.0.weight f4 [8, 16]
0	0xbba6ef00	-0.005094409
1	0x3ea80da2	0.328229
2	0xbd391fa0	-0.045196176
3	0xbe836e14	-0.2566992
4	0xbe9257de	-0.28582662
5	0xbe79fb98	-0.24412382
6	0x3ecff63a	0.40617543
7	0xbefdf052	-0.49597412
8	0x3e519c00	0.20469666
9	0xbe494c14	-0.19657928
10	0xbe430c0c	-0.19047564
11	0xbe5ef420	-0.21772814
12	0xbec54c94	-0.38534987
13	0x3d2b7430	0.041858852
14	0xbe3caf44	-0.18426234
15	0xbdbc2f28	-0.09188682
16	0xbee25af8	-0.4421003
17	0x3db2a460	0.08722758
18	0xbe8f04b8	-0.27933288
19	0xbe5c1630	-0.21492839
20	0xbed9f064	-0.42566216
21	0x3d7e1ea0	0.062040925
22	0xbe685d44	-0.22691828
23	0x3ec46d9a	0.3836487
24	0xbe68964c	-0.22713584
25	0xbe279a68	-0.16367495
26	0xbec489f0	-0.38386488
27	0xbd8b9838	-0.06816143
28	0x3eaee21a	0.34156877
29	0xbed24354	-0.41066992
30	0xbed86098	-0.42261195
31	0xbdeede78	-0.11663526
32	0xbeaaf70a	-0.333916
33	0x3d8a4fb8	0.067534864
34	0x3e7f94fc	0.24959177
35	0x3e400d94	0.1875518
36	0xbee63fc6	-0.4497053
37	0x3e197c00	0.14988708
38	0xbd29ab90	-0.04142338
39	0xbeeff404	-0.46865857
40	0xbeeba77a	-0.46026212
41	0x3e8c2900	0.2737503
42	0xbe0db7a4	-0.13839585
43	0x3e4bc778	0.1990031
44	0xbdc6e578	-0.097117364
45	0x3ea91d24	0.33030045
46	0xbe7cebd0	-0.2469933
47	0x3e41559c	0.18880314
48	0xbd8a4ee0	-0.067533255
49	0x3e95d7a0	0.2926607
50	0x3ed05314	0.40688384
51	0xbebf6ae2	-0.37386233
52	0xbe5e1008	-0.21685803
53	0x3dc57b98	0.09642714
54	0xbd846a38	-0.06465572
55	0xbef93a36	-0.48677224
56	0x3e83e0a6	0.2575733
57	0xbe5cf188	-0.21576512
58	0xbdb98ce0	-0.09060073
59	0x3e0005e4	0.12502247
60	0xbedb6082	-0.42847067
61	0xbe766114	-0.2406047
62	0xbef72e4c	-0.4827751
63	0xbedd7208	-0.4325106
64	0x3ec25590	0.37955904
65	0x3e6b14f0	0.22957206
66	0x3e6ff3f0	0.23432899
67	0x3e9cc1aa	0.30616504
68	0x3e1b9ea8	0.15197241
69	0x3cca0040	0.024658322
70	0x3e9bbe08	0.3041842
71	0x3e1e5e5c	0.15465683
72	0xbda361b8	-0.07977623
73	0x3e139970	0.14414
74	0xbeee04da	-0.46488076
75	0xbdc64388	-0.09680849
76	0xbe368d5c	-0.17827362
77	0x3e29f66c	0.16597909
78	0x3d031e00	0.032011032
79	0xbeccb3ba	-0.3998087
80	0x3eeb2352	0.45925385
81	0x3e6ddd74	0.23229009
82	0xbea94ed2	-0.33067948
83	0x3ee0b3ac	0.4388708
84	0xbeb20400	-0.34768677
85	0x3ed4f020	0.4158945
86	0x3e149de8	0.14513361
87	0xbc339ac0	-0.010962188
88	0x3e1d0448	0.15333664
89	0xbec408c0	-0.38287926
90	0xbe8c3c54	-0.27389777
91	0x3ec3c5f2	0.38236958
92	0x3ed586de	0.41704458
93	0xbe576eb8	-0.2103833
94	0xbece24f0	-0.40262556
95	0x3dcff840	0.10154772
96	0x3e7d8cb4	0.24760705
97	0xbe07dcd0	-0.13267827
98	0xbec85ee4	-0.39134896
99	0x3da7d820	0.081955194
100	0x3efd6650	0.4949212
101	0xbea8de78	-0.3298223
102	0x3e6d2944	0.23160273
103	0x3ed94ea6	0.42442816
104	0x3db2c808	0.08729559
105	0xbc1e1340	-0.009648144
106	0x3e984b04	0.29744732
107	0x3e54eee4	0.20794255
108	0xbdd30f10	-0.10305607
109	0xbe1a0670	-0.15041518
110	0xbebdbd48	-0.37058473
111	0xbe90b504	-0.28263104
112	0x3e986860	0.29767132
113	0x3ee2cfd0	0.44299173
114	0x3edf8972	0.4365955
115	0xbe750de8	-0.23931086
116	0x3ea39a9a	0.3195389
117	0x3d0bae50	0.034101784
118	0x3e990d48	0.29892945
119	0xbdb360c8	-0.08758694
120	0xbeb1aa10	-0.3470006
121	0x3e8097e0	0.2511587
122	0xbe5fc244	-0.2185145
123	0x3e9e81a4	0.30958283
124	0xbee17c20	-0.44040012
125	0xbef5c6cc	-0.48003232
126	0xbe8a8dda	-0.2706135
127	0x3ee690fc	0.4503249

core_layers.core_0.node_model.wAggregation.0.bias f4 [8]
0	0xbe68a356	-0.22718558
1	0x3e5fccc8	0.21855462
2	0xbda6123c	-0.08108947
3	0x3d09b9b8	0.03362438
4	0x3e024e68	0.12725222
5	0x3d8ebfb4	0.06970158
6	0xbe7ef7ee	-0.24899265
7	0xbd322150	-0.0434888

core_layers.core_0.node_model.wAggregation.3.weight f4 [1, 8]
0	0xbc694480	-0.014237523
1	0x3e50d600	0.20394135
2	0xbf027552	-0.50960267
3	0x3f051934	0.5199158
4	0xbef804f9	-0.48441294
5	0xbf1e696c	-0.6187961
6	0xbeae19dc	-0.34004104
7	0x3f08931e	0.53349483

core_layers.core_0.node_model.node_mlp_1.0.weight f4 [24, 24]
0	0x3cd3f510	0.02587369
1	0x3e9585ff	0.29203793
2	0xbe90db3b	-0.2829226
3	0x3e214a2a	0.15750948
4	0xbcf49cc0	-0.0298599
5	0x3d9108ac	0.07081732
6	0x3e47f1d6	0.19525847
7	0x3e7b7922	0.24557927
8	0x3cb026ee	0.021502938
9	0x3db229cb	0.086993776
10	0xbdf0d2f3	-0.11758985
11	0xbf1fc519	-0.6241012
12	0x3e2a2bc3	0.16618256
13	0x3cd98dc8	0.026556864
14	0x3e7b59db	0.24545996
15	0xbdcd241e	-0.100166544
16	0xbda07b49	-0.07836015
17	0xbe0fc300	-0.1403923
18	0xbe263651	-0.16231658
19	0x3e45b9c7	0.1930915
20	0xbea739e7	-0.32661363
21	0x3e3c5db7	0.18395124
22	0x3da5963b	0.08085295
23	0x3dbe86f6	0.093030855
24	0x3c82da80	0.01597333
25	0xbdb3307c	-0.08749482
26	0xbdc822ec	-0.09772286
27	0xbd4e2398	-0.050326914
28	0x3e07bb84	0.13255125
29	0xbe65f82d	-0.22457953
30	0xbd2e24f8	-0.042515725
31	0xbd2254f8	-0.039631814
32	0xbd1934b9	-0.037403796
33	0x3ef8005f	0.48437783
34	0xbe5c05a8	-0.21486533
35	0xbeb0a9fd	-0.3450469
36	0x3e53b73c	0.20675367
37	0xb98281ba	-0.00024892186
38	0x3e4582e5	0.19288214
39	0x3d511da0	0.051053643
40	0x3e370676	0.17873558
41	0xbedee93d	-0.43537322
42	0xbe3018ab	-0.1719691
43	0x3e409d64	0.1881004
44	0x3d2a4a41	0.04157472
45	0xbe869669	-0.2628663
46	0x3dce3833	0.10069313
47	0x3df7b23c	0.120945424
48	0x3e6506b2	0.22365835
49	0x3e7f583a	0.24936
50	0xbe931e56	-0.28734082
51	0x3d1dec98	0.03855571
52	0xbd72efa0	-0.059310555
53	0xbe881eaa	-0.26585895
54	0xbe5372c8	-0.20649254
55	0xbe9a7a44	-0.30171406
56	0x3dee1d7c	0.116267174
57	0x3e2edc40	0.17076206
58	0xbe194a0b	-0.14969651
59	0x3e0e8b12	0.13920239
60	0x3ebb28db	0.36554608
61	0xbd4648a2	-0.04840911
62	0x3eea0b6b	0.45711836
63	0x3d838b98	0.0642311
64	0xbe2a031e	-0.16602752
65	0xbe8ecf3a	-0.27892476
66	0xbc48793d	-0.012235937
67	0xbd9a2947	-0.07527404
68	0xbeae5748	-0.34050965
69	0xbe95d784	-0.29265988
70	0x3e577279	0.21039762
71	0x3e68951a	0.22713128
72	0xbe64d4c8	-0.22346795
73	0xbe675020	-0.22589159
74	0x3ea9eeb7	0.33189937
75	0xbe7b90d5	-0.24566968
76	0x3de65c80	0.11248112
77	0xbdd38e14	-0.103298336
78	0xbe1c1e51	-0.1524594
79	0x3ea79eed	0.32738438
80	0xbd8f4674	-0.0699586
81	0xbde0bf92	-0.10974039
82	0x3df54add	0.1197717
83	0xbeca3cc2	-0.3949948
84	0x3eb680f6	0.35645264
85	0xbe5f87a1	-0.21829082
86	0xbe95a964	-0.29230797
87	0xbc8078de	-0.015682634
88	0xbeb8296e	-0.35969108
89	0xbe650a9a	-0.22367325
90	0x3d2095b7	0.03920528
91	0x3c6cc00c	0.014450084
92	0xbe20dae5	-0.15708502
93	0xbe3e4ad1	-0.18583228
94	0xbe010fed	-0.12603731
95	0xbd51260b	-0.05106167
96	0xbe429165	-0.19000776
97	0xbe343abd	-0.17600532
98	0xbe2d98c4	-0.16952807
99	0x3e025784	0.12728697
100	0xbe7f6ac8	-0.24943078
101	0x3e8176bd	0.25285903
102	0xbe4e4212	-0.20142391
103	0x3df8a570	0.1214093
104	0x3ea8230d	0.32839242
105	0x3ec0a49a	0.3762558
106	0x3d91323b	0.07089659
107	0x3d3ad70f	0.045615252
108	0xbe7b6384	-0.24549681
109	0xbe5641ab	-0.20923488
110	0x3dba4354	0.09094873
111	0xbeb07f38	-0.3447206
112	0xbd92fbba	-0.07176919
113	0x3e2a3fe3	0.16625933
114	0x3e485fe3	0.19567828
115	0x3e3d125d	0.18464036
116	0xbc726b98	-0.01479616
117	0x3e81e95a	0.25373346
118	0xbe8222f7	-0.254173
119	0x3dd51575	0.10404483
120	0x3e97b293	0.2962843
121	0xbe264393	-0.16236715
122	0xbdfa97c0	-0.12235975
123	0x3d8698f4	0.06572142
124	0xbd7cbfa0	-0.061706185
125	0xbdf61bb4	-0.12017003
126	0x3db04ccc	0.08608398
127	0xbd1b9dd0	-0.0379923
128	0xbe624d9d	-0.2209992
129	0xbf039bc3	-0.5140955
130	0x3e63628e	0.22205564
131	0x3d14797e	0.036248676
132	0xbf153553	-0.5828449
133	0xbea3b06d	-0.3197054
134	0xbe8a9592	-0.27067238
135	0x3ec5d8e6	0.38642043
136	0xbde8f780	-0.11375332
137	0xbc88fd8f	-0.016722469
138	0x3dbae57f	0.09125804
139	0x3d7e9b61	0.0621599
140	0x3daff98f	0.085925214
141	0xbeed48ab	-0.46344504
142	0xbdceb6bd	-0.10093448
143	0x3f047a95	0.51749545
144	0x3e53560a	0.2063829
145	0x3d1f8788	0.038947612
146	0xbc60e120	-0.013725549
147	0xbe545df8	-0.20738971
148	0xbe83a2dd	-0.25710192
149	0x3e5ff3da	0.21870366
150	0x3e5c843a	0.21534815
151	0x3eb1a54b	0.3469642
152	0x3f4560c8	0.771008
153	0x3f0f4fb8	0.55981016
154	0xbef75840	-0.48309517
155	0xbf45947d	-0.771797
156	0x3f305cd2	0.6889163
157	0x3e164350	0.14674115
158	0x3f0b92fb	0.5452115
159	0xbf37dd18	-0.7182174
160	0xbe60a18a	-0.21936622
161	0xbe97ca1d	-0.29646388
162	0x3f033d67	0.5126557
163	0x3e57b50b	0.21065156
164	0xbf229623	-0.6351034
165	0x3ea48900	0.32135773
166	0xbe43d0e5	-0.19122656
167	0xbeaf46b5	-0.34233633
168	0xbd4c6278	-0.049898595
169	0x3e2709de	0.16312358
170	0x3e2fed1e	0.17180297
171	0xbea25a87	-0.31709692
172	0x3e2fed0a	0.17180267
173	0xbe33b7d0	-0.17550588
174	0x3ccd1b30	0.025037378
175	0xbdbeeb7c	-0.09322259
176	0xbd5ff26c	-0.05467455
177	0x3ee29776	0.4425618
178	0x3d75c2b1	0.060000125
179	0xbdf64f97	-0.12026899
180	0xbec14016	-0.37744206
181	0x3e75f829	0.24020447
182	0x3ea85271	0.32875398
183	0xbea5fdba	-0.3242014
184	0x3df9fa8a	0.1220599
185	0xbbf6f7d9	-0.00753687
186	0x3e0fed9e	0.14055488
187	0x3d7a8015	0.061157305
188	0xbe19574f	-0.14974712
189	0x3edae9b3	0.42756423
190	0xbed6fd58	-0.4199016
191	0xbf2eabb9	-0.6823078
192	0x3d5c6ee8	0.053816706
193	0xbe25d5f0	-0.16194892
194	0xbe714e6e	-0.23565075
195	0x3e4a9c86	0.19786271
196	0x3d521500	0.05128956
197	0x3db9dac8	0.09074932
198	0xbe19ceec	-0.1502034
199	0x3d430628	0.047613293
200	0x3f01b956	0.50673425
201	0x3f28ba74	0.65909505
202	0x3de32622	0.11091258
203	0xbf173c45	-0.5907634
204	0x3e16cbba	0.14726153
205	0x3f02654c	0.50935817
206	0x3eb2c3be	0.34914964
207	0xbd6ef7fb	-0.05834196
208	0x3eeb681a	0.4597786
209	0xbecb5b74	-0.3971821
210	0x3e1f6760	0.15566778
211	0x3e6b7945	0.2299548
212	0xbecae6d2	-0.39629227
213	0x3e63ef09	0.22259153
214	0xbf09b621	-0.5379353
215	0xbdcc2fd3	-0.09970059
216	0x3dc20694	0.09473911
217	0x3de25b38	0.11052555
218	0x3d3d04e8	0.046147257
219	0xbc992dd0	-0.018698603
220	0xbbf77ac0	-0.0075524747
221	0x3eab3179	0.33436182
222	0x3e848813	0.25885066
223	0xbe2ca793	-0.168608
224	0x3eb62391	0.3557401
225	0x3ec7c420	0.3901682
226	0xbe9016e3	-0.2814246
227	0xbec312d1	-0.38100293
228	0x3e43aeb9	0.1910962
229	0x3dc2a752	0.0950457
230	0xbe4ba5ac	-0.19887418
231	0xbdd6294a	-0.10457094
232	0xbf01f29d	-0.50760823
233	0xbe885d90	-0.26633883
234	0x3e764a41	0.24051763
235	0x3eb45a10	0.35224962
236	0xbd7df279	-0.061998818
237	0x3e897c67	0.26852724
238	0xbe635394	-0.22199851
239	0x3a4677bc	0.00075709424
240	0xbe47792f	-0.19479822
241	0xbdfeeb86	-0.12447266
242	0xbe7f43bc	-0.24928182
243	0xbd3ab818	-0.04558572
244	0x3d333ec8	0.043761045
245	0xbddb9538	-0.107218206
246	0x3e7be47a	0.24598876
247	0x3ea3039f	0.318387
248	0x3b6535f7	0.0034974793
249	0x3d43d464	0.047809973
250	0xbe9e5930	-0.3092742
251	0xbe7f0a7d	-0.24906345
252	0xbd8b8268	-0.068119824
253	0x3e14f5e1	0.1454692
254	0x3f031a46	0.51211965
255	0xbe0fc327	-0.14039288

core_layers.core_0.node_model.node_mlp_1.0.bias f4 [24]
0	0x3e82943c	0.2550372
1	0xbe93ed42	-0.2889195
2	0xbeae76d8	-0.34075046
3	0xbe23e410	-0.16004968
4	0x3e0da157	0.13831078
5	0x3ee42b23	0.4456416
6	0x3e9a4b34	0.301355
7	0x3ded4644	0.11585668
8	0x3d610c75	0.05494352
9	0x3ee5a5a2	0.4485293
10	0x3e56738c	0.20942515
11	0x3ed16e92	0.4090467
12	0x3f25da8d	0.6478661
13	0x3d3db1f5	0.04631229
14	0xbeec61cf	-0.46168372
15	0x3f40ae0d	0.7526558
16	0xbe1a2e49	-0.15056719
17	0xbd93f2ce	-0.07224046
18	0xbed06072	-0.40698582
19	0x3e0179a6	0.12644061
20	0x3da73df8	0.081661165
21	0xbe6e662f	-0.23281167
22	0xbf29fe34	-0.6640351
23	0xbd8d296e	-0.06892668
